…
               )
               (fc): Sequential(
                 (0): Flatten(start_dim=1, end_dim=-1)
                 (1): Linear(in_features=512, out_features=2, bias=True)
                 (2): LogSoftmax(dim=1)
               )
             )
             ==========================================================================================
             Layer (type:depth-idx)                   Output Shape              Param #
             ==========================================================================================
             IFNet                                    [1, 2]                    --
             ├─Sequential: 1-1                        [1, 128, 1000]            --
             │    └─Conv1d: 2-1                       [1, 128, 1000]            384
             │    └─BatchNorm1d: 2-2                  [1, 128, 1000]            256
             ├─ModuleList: 1-2                        --                        --
             │    └─Sequential: 2-3                   [1, 64, 1000]             --
             │    │    └─Conv1d: 3-1                  [1, 64, 1000]             4,032
             │    │    └─BatchNorm1d: 3-2             [1, 64, 1000]             128
             │    └─Sequential: 2-4                   [1, 64, 1000]             --
             │    │    └─Conv1d: 3-3                  [1, 64, 1000]             1,984
             │    │    └─BatchNorm1d: 3-4             [1, 64, 1000]             128
             ├─InterFre: 1-3                          [1, 64, 1000]             --
             ├─Sequential: 1-4                        [1, 64, 8]                --
             │    └─AvgPool1d: 2-5                    [1, 64, 8]                --
             │    └─Dropout: 2-6                      [1, 64, 8]                --
             ├─Sequential: 1-5                        [1, 2]                    --
             │    └─Flatten: 2-7                      [1, 512]                  --
             │    └─Linear: 2-8                       [1, 2]                    1,026
             │    └─LogSoftmax: 2-9                   [1, 2]                    --
             ==========================================================================================
             Total params: 7,938
             Trainable params: 7,938
             Non-trainable params: 0
             Total mult-adds (M): 6.40
             ==========================================================================================
             Input size (MB): 0.02
             Forward/backward pass size (MB): 4.10
…
