…
               (temporal_block): LogVarLayer()
               (conv): LightweightConv1d()
               (classify): Sequential(
                 (0): Linear(in_features=64, out_features=4, bias=True)
                 (1): LogSoftmax(dim=1)
               )
             )
             ==========================================================================================
             Layer (type:depth-idx)                   Output Shape              Param #
             ==========================================================================================
             LightConvNet                             [1, 4]                    --
             ├─Sequential: 1-1                        [1, 64, 1, 1000]          --
             │    └─Conv2d: 2-1                       [1, 64, 1, 1000]          12,736
             │    └─BatchNorm2d: 2-2                  [1, 64, 1, 1000]          128
             │    └─ELU: 2-3                          [1, 64, 1, 1000]          --
             ├─LogVarLayer: 1-2                       [1, 64, 4]                --
             ├─LightweightConv1d: 1-3                 [1, 64, 1]                32
             ├─Sequential: 1-4                        [1, 4]                    --
             │    └─Linear: 2-4                       [1, 4]                    260
             │    └─LogSoftmax: 2-5                   [1, 4]                    --
             ==========================================================================================
             Total params: 13,156
             Trainable params: 13,156
             Non-trainable params: 0
             Total mult-adds (M): 12.74
             ==========================================================================================
             Input size (MB): 0.79
             Forward/backward pass size (MB): 1.02
…
