…
               (last_head): ClsHead(
                 (0): Flatten(start_dim=1, end_dim=-1)
                 (1): Linear(in_features=72, out_features=2, bias=True)
                 (2): LogSoftmax(dim=1)
               )
             )
             ====================================================================================================
             Layer (type:depth-idx)                             Output Shape              Param #
             ====================================================================================================
             MSVTNet                                            [1, 2]                    --
             ├─ModuleList: 1-1                                  --                        --
             │    └─Sequential: 2-1                             [1, 17, 18]               --
             │    │    └─TSConv: 3-1                            [1, 18, 1, 17]            549
             │    │    └─Rearrange: 3-2                         [1, 17, 18]               --
             │    └─Sequential: 2-2                             [1, 17, 18]               --
             │    │    └─TSConv: 3-3                            [1, 18, 1, 17]            693
             │    │    └─Rearrange: 3-4                         [1, 17, 18]               --
             │    └─Sequential: 2-3                             [1, 17, 18]               --
             │    │    └─TSConv: 3-5                            [1, 18, 1, 17]            981
             │    │    └─Rearrange: 3-6                         [1, 17, 18]               --
             │    └─Sequential: 2-4                             [1, 17, 18]               --
             │    │    └─TSConv: 3-7                            [1, 18, 1, 17]            1,539
             │    │    └─Rearrange: 3-8                         [1, 17, 18]               --
             ├─ModuleList: 1-2                                  --                        --
             │    └─ClsHead: 2-5                                [1, 2]                    --
             │    │    └─Flatten: 3-9                           [1, 306]                  --
             │    │    └─Linear: 3-10                           [1, 2]                    614
             │    │    └─LogSoftmax: 3-11                       [1, 2]                    --
             │    └─ClsHead: 2-6                                [1, 2]                    --
             │    │    └─Flatten: 3-12                          [1, 306]                  --
             │    │    └─Linear: 3-13                           [1, 2]                    614
             │    │    └─LogSoftmax: 3-14                       [1, 2]                    --
             │    └─ClsHead: 2-7                                [1, 2]                    --
             │    │    └─Flatten: 3-15                          [1, 306]                  --
             │    │    └─Linear: 3-16                           [1, 2]                    614
             │    │    └─LogSoftmax: 3-17                       [1, 2]                    --
             │    └─ClsHead: 2-8                                [1, 2]                    --
             │    │    └─Flatten: 3-18                          [1, 306]                  --
             │    │    └─Linear: 3-19                           [1, 2]                    614
             │    │    └─LogSoftmax: 3-20                       [1, 2]                    --
             ├─Transformer: 1-3                                 [1, 72]                   72
             │    └─PositionalEncoding: 2-9                     [1, 18, 72]               1,296
             │    └─Dropout: 2-10                               [1, 18, 72]               --
             │    └─TransformerEncoder: 2-11                    [1, 18, 72]               --
             │    │    └─ModuleList: 3-21                       --                        63,648
             │    │    └─LayerNorm: 3-22                        [1, 18, 72]               144
             ├─ClsHead: 1-4                                     [1, 2]                    --
             │    └─Flatten: 2-12                               [1, 72]                   --
             │    └─Linear: 2-13                                [1, 2]                    146
             │    └─LogSoftmax: 2-14                            [1, 2]                    --
             ====================================================================================================
             Total params: 71,524
             Trainable params: 71,524
             Non-trainable params: 0
             Total mult-adds (M): 6.67
             ====================================================================================================
             Input size (MB): 0.01
…
