…
               (head): Sequential(
                 (0): Flatten(start_dim=1, end_dim=-1)
                 (1): LinearWithNorm(in_features=1152, out_features=2, bias=True, max_norm=0.5, p=2)
                 (2): LogSoftmax(dim=1)
               )
             )
             ==========================================================================================
             Layer (type:depth-idx)                   Output Shape              Param #
             ==========================================================================================
             FBCNet                                   [1, 2]                    --
             ├─Sequential: 1-1                        [1, 288, 1, 1000]         --
             │    └─Conv2dWithNorm: 2-1               [1, 288, 1, 1000]         1,152
             │    └─BatchNorm2d: 2-2                  [1, 288, 1, 1000]         576
             │    └─swish: 2-3                        [1, 288, 1, 1000]         --
             ├─LogVarLayer: 1-2                       [1, 288, 4, 1]            --
             ├─Sequential: 1-3                        [1, 2]                    --
             │    └─Flatten: 2-4                      [1, 1152]                 --
             │    └─LinearWithNorm: 2-5               [1, 2]                    2,306
             │    └─LogSoftmax: 2-6                   [1, 2]                    --
             ==========================================================================================
             Total params: 4,034
             Trainable params: 4,034
             Non-trainable params: 0
             Total mult-adds (M): 1.15
             ==========================================================================================
             Input size (MB): 0.11
             Forward/backward pass size (MB): 4.61
…
