…
                 (0): Flatten(start_dim=1, end_dim=-1)
                 (1): Dropout(p=0.5, inplace=False)
                 (2): LinearWithNorm(in_features=5480, out_features=2, bias=True, max_norm=0.5, p=2)
                 (3): LogSoftmax(dim=1)
               )
             )
             ==========================================================================================
             Layer (type:depth-idx)                   Output Shape              Param #
             ==========================================================================================
             ShallowConvNet                           [1, 2]                    --
             ├─Sequential: 1-1                        [1, 40, 1, 137]           --
             │    └─Conv2dWithNorm: 2-1               [1, 40, 3, 987]           560
             │    └─Conv2dWithNorm: 2-2               [1, 40, 1, 987]           120
             │    └─BatchNorm2d: 2-3                  [1, 40, 1, 987]           80
             │    └─Lambda: 2-4                       [1, 40, 1, 987]           --
             │    └─AvgPool2d: 2-5                    [1, 40, 1, 137]           --
             │    └─Lambda: 2-6                       [1, 40, 1, 137]           --
             ├─Sequential: 1-2                        [1, 2]                    --
             │    └─Flatten: 2-7                      [1, 5480]                 --
             │    └─Dropout: 2-8                      [1, 5480]                 --
             │    └─LinearWithNorm: 2-9               [1, 2]                    10,962
             │    └─LogSoftmax: 2-10                  [1, 2]                    --
             ==========================================================================================
             Total params: 11,722
             Trainable params: 11,722
             Non-trainable params: 0
             Total mult-adds (M): 1.79
             ==========================================================================================
             Input size (MB): 0.01
             Forward/backward pass size (MB): 1.58
…
