…
               )
               (flatten): Flatten(start_dim=1, end_dim=-1)
               (fc): Sequential(
                 (0): Linear(in_features=112, out_features=4, bias=True)
                 (1): LogSoftmax(dim=1)
               )
             )
             ==========================================================================================
             Layer (type:depth-idx)                   Output Shape              Param #
             ==========================================================================================
             EEGNet                                   [1, 4]                    --
             ├─Sequential: 1-1                        [1, 8, 22, 1000]          --
             │    └─Conv2d: 2-1                       [1, 8, 22, 1000]          504
             │    └─BatchNorm2d: 2-2                  [1, 8, 22, 1000]          16
             ├─Sequential: 1-2                        [1, 16, 1, 125]           --
             │    └─Conv2dWithNorm: 2-3               [1, 16, 1, 1000]          352
             │    └─BatchNorm2d: 2-4                  [1, 16, 1, 1000]          32
             │    └─ELU: 2-5                          [1, 16, 1, 1000]          --
             │    └─AvgPool2d: 2-6                    [1, 16, 1, 125]           --
             │    └─Dropout: 2-7                      [1, 16, 1, 125]           --
             ├─Sequential: 1-3                        [1, 16, 1, 7]             --
             │    └─Conv2d: 2-8                       [1, 16, 1, 125]           240
             │    └─Conv2d: 2-9                       [1, 16, 1, 125]           256
             │    └─BatchNorm2d: 2-10                 [1, 16, 1, 125]           32
             │    └─ELU: 2-11                         [1, 16, 1, 125]           --
             │    └─AvgPool2d: 2-12                   [1, 16, 1, 7]             --
             │    └─Dropout: 2-13                     [1, 16, 1, 7]             --
             ├─Flatten: 1-4                           [1, 112]                  --
             ├─Sequential: 1-5                        [1, 4]                    --
             │    └─Linear: 2-14                      [1, 4]                    452
             │    └─LogSoftmax: 2-15                  [1, 4]                    --
             ==========================================================================================
             Total params: 1,884
             Trainable params: 1,884
             Non-trainable params: 0
             Total mult-adds (M): 11.50
             ==========================================================================================
             Input size (MB): 0.09
             Forward/backward pass size (MB): 3.12
…
