[Start Time]: Thu Jan 11 11:24:40 2024
[DPEEG Version]: 0.3.5
[Description]: None
[LOSO_HO:
  [trainer]: [Network architecture]:
             MSVTNet(
               (mstsconv): ModuleList(
                 (0): Sequential(
                   (0): TSConv(
                     (0): Conv2d(1, 9, kernel_size=(1, 15), stride=(1, 1), padding=same, bias=False)
                     (1): BatchNorm2d(9, eps=1e-05, momentum=0.1, affine=True, track_running_stats=True)
                     (2): Conv2d(9, 18, kernel_size=(20, 1), stride=(1, 1), groups=9, bias=False)
                     (3): BatchNorm2d(18, eps=1e-05, momentum=0.1, affine=True, track_running_stats=True)
                     (4): ELU(alpha=1.0)
                     (5): AvgPool2d(kernel_size=(1, 8), stride=(1, 8), padding=0)
                     (6): Dropout(p=0.1, inplace=False)
                     (7): Conv2d(18, 18, kernel_size=(1, 15), stride=(1, 1), padding=same, groups=18, bias=False)
                     (8): BatchNorm2d(18, eps=1e-05, momentum=0.1, affine=True, track_running_stats=True)
                     (9): ELU(alpha=1.0)
                     (10): AvgPool2d(kernel_size=(1, 7), stride=(1, 7), padding=0)
                     (11): Dropout(p=0.1, inplace=False)
                   )
                   (1): Rearrange('b d 1 t -> b t d')
                 )
                 (1): Sequential(
                   (0): TSConv(
                     (0): Conv2d(1, 9, kernel_size=(1, 31), stride=(1, 1), padding=same, bias=False)
                     (1): BatchNorm2d(9, eps=1e-05, momentum=0.1, affine=True, track_running_stats=True)
                     (2): Conv2d(9, 18, kernel_size=(20, 1), stride=(1, 1), groups=9, bias=False)
                     (3): BatchNorm2d(18, eps=1e-05, momentum=0.1, affine=True, track_running_stats=True)
                     (4): ELU(alpha=1.0)
                     (5): AvgPool2d(kernel_size=(1, 8), stride=(1, 8), padding=0)
                     (6): Dropout(p=0.1, inplace=False)
                     (7): Conv2d(18, 18, kernel_size=(1, 15), stride=(1, 1), padding=same, groups=18, bias=False)
                     (8): BatchNorm2d(18, eps=1e-05, momentum=0.1, affine=True, track_running_stats=True)
                     (9): ELU(alpha=1.0)
                     (10): AvgPool2d(kernel_size=(1, 7), stride=(1, 7), padding=0)
                     (11): Dropout(p=0.1, inplace=False)
                   )
                   (1): Rearrange('b d 1 t -> b t d')
                 )
                 (2): Sequential(
                   (0): TSConv(
                     (0): Conv2d(1, 9, kernel_size=(1, 63), stride=(1, 1), padding=same, bias=False)
                     (1): BatchNorm2d(9, eps=1e-05, momentum=0.1, affine=True, track_running_stats=True)
                     (2): Conv2d(9, 18, kernel_size=(20, 1), stride=(1, 1), groups=9, bias=False)
                     (3): BatchNorm2d(18, eps=1e-05, momentum=0.1, affine=True, track_running_stats=True)
                     (4): ELU(alpha=1.0)
                     (5): AvgPool2d(kernel_size=(1, 8), stride=(1, 8), padding=0)
                     (6): Dropout(p=0.1, inplace=False)
                     (7): Conv2d(18, 18, kernel_size=(1, 15), stride=(1, 1), padding=same, groups=18, bias=False)
                     (8): BatchNorm2d(18, eps=1e-05, momentum=0.1, affine=True, track_running_stats=True)
                     (9): ELU(alpha=1.0)
                     (10): AvgPool2d(kernel_size=(1, 7), stride=(1, 7), padding=0)
                     (11): Dropout(p=0.1, inplace=False)
                   )
                   (1): Rearrange('b d 1 t -> b t d')
                 )
                 (3): Sequential(
                   (0): TSConv(
                     (0): Conv2d(1, 9, kernel_size=(1, 125), stride=(1, 1), padding=same, bias=False)
                     (1): BatchNorm2d(9, eps=1e-05, momentum=0.1, affine=True, track_running_stats=True)
                     (2): Conv2d(9, 18, kernel_size=(20, 1), stride=(1, 1), groups=9, bias=False)
                     (3): BatchNorm2d(18, eps=1e-05, momentum=0.1, affine=True, track_running_stats=True)
                     (4): ELU(alpha=1.0)
                     (5): AvgPool2d(kernel_size=(1, 8), stride=(1, 8), padding=0)
                     (6): Dropout(p=0.1, inplace=False)
                     (7): Conv2d(18, 18, kernel_size=(1, 15), stride=(1, 1), padding=same, groups=18, bias=False)
                     (8): BatchNorm2d(18, eps=1e-05, momentum=0.1, affine=True, track_running_stats=True)
                     (9): ELU(alpha=1.0)
                     (10): AvgPool2d(kernel_size=(1, 7), stride=(1, 7), padding=0)
                     (11): Dropout(p=0.1, inplace=False)
                   )
                   (1): Rearrange('b d 1 t -> b t d')
                 )
               )
               (branch_head): ModuleList(
                 (0-3): 4 x ClsHead(
                   (0): Flatten(start_dim=1, end_dim=-1)
                   (1): Linear(in_features=306, out_features=2, bias=True)
                   (2): LogSoftmax(dim=1)
                 )
               )
               (transformer): Transformer(
                 (pos_embedding): PositionalEncoding()
                 (dropout): Dropout(p=0.3, inplace=False)
                 (trans): TransformerEncoder(
                   (layers): ModuleList(
                     (0): TransformerEncoderLayer(
                       (self_attn): MultiheadAttention(
                         (out_proj): NonDynamicallyQuantizableLinear(in_features=72, out_features=72, bias=True)
                       )
                       (linear1): Linear(in_features=72, out_features=72, bias=True)
                       (dropout): Dropout(p=0.3, inplace=False)
                       (linear2): Linear(in_features=72, out_features=72, bias=True)
                       (norm1): LayerNorm((72,), eps=1e-05, elementwise_affine=True)
                       (norm2): LayerNorm((72,), eps=1e-05, elementwise_affine=True)
                       (dropout1): Dropout(p=0.3, inplace=False)
                       (dropout2): Dropout(p=0.3, inplace=False)
                     )
                   )
                   (norm): LayerNorm((72,), eps=1e-05, elementwise_affine=True)
                 )
               )
               (last_head): ClsHead(
                 (0): Flatten(start_dim=1, end_dim=-1)
                 (1): Linear(in_features=72, out_features=2, bias=True)
                 (2): LogSoftmax(dim=1)
               )
             )
             ===============================================================================================
             Layer (type:depth-idx)                                                 Param #
             ===============================================================================================
…
